models/mnist-mlp.pth (torch, 440284 bytes, 6 tensors)

network.1.weight f4 [128, 784]
0.024443612 0.031520132 -0.026220288 -0.012149399 -0.023893088 -0.010522716 0.010433763 -0.003911998
0.0022483654 -0.022563804 0.011793569 0.0048658624 -0.0026475377 0.033084247 0.031114865 0.021081567
0.022985429 -0.0044545047 0.01046183 -0.01900304 -0.0012023188 0.012304224 0.0167422 -0.009367896
-0.031883948 0.01287242 -0.033364527 -0.033526473 0.026058812 -0.00029546395 0.027352367 0.02722444
-0.010210373 0.017926808 -0.025666118 0.030650487 0.005438991 0.0023930832 -0.030997127 -0.008746968
-0.020016788 -0.034972724 0.020428406 0.01924093 -0.029657174 0.022428758 -0.01952596 -0.026301622
0.012733413 0.026584256 -0.0061876765 -0.011730235 -0.028057134 -0.018952167 -0.02917481 -0.01516307
0.031562623 -0.0041779764 0.005160119 0.01532783 0.013661551 -0.029939907 0.014924479 -0.03055242
0.025831 -0.006811664 -0.023241438 0.004623809 -0.028359218 -0.012544484 0.03180238 0.0035990586
0.021999331 -0.02172314 0.01776349 -0.029901246 -0.012819287 -0.014354691 0.0086668 0.0055534127
0.03431208 0.0012478888 0.019212238 -0.024460185 0.02227648 0.029126342 -0.019322347 0.02588955
0.023055146 0.027728692 0.03505576 0.0055734147 0.0126915695 -0.0049259337 -0.025133636 -0.026831696
0.00014588195 -0.009481607 -0.032086425 0.026737206 0.0154049415 0.013011762 -0.02264328 -0.03386194
-0.034499675 0.015729187 -0.009610733 -0.0206562 -0.023359066 0.027757192 0.027547942 0.033304546
-0.019175356 0.00879513 0.011513262 -0.021564774 -0.031152848 -0.020938417 -0.02557481 0.030962372
0.002519533 -0.033518355 0.003349392 0.033233427 0.025500953 -0.004830987 0.0017027665 -0.0055869864
-0.005204484 -0.017050857 -0.0023345652 -0.034815826 0.007269323 -0.014159556 -0.026563894 -0.028828025
0.006261151 -0.0018295645 -0.023667088 -0.012978791 -0.011907471 0.0166037 -0.02029116 -0.0026555434
0.031324603 0.0030045903 -0.008070229 -0.028845442 -0.0065891026 0.013524261 0.01900824 -0.011404752
0.030948201 -0.0047027245 0.007160158 0.0075381887 0.007925122 -0.024453718 -0.015276737 -0.009312219
0.0029618486 0.0026479778 0.027478766 0.028956056 -0.0018852616 0.032017678 -0.011055007 -0.019793868
0.02353273 0.02642929 -0.013306114 -0.027771525 0.010413065 -0.01942368 0.0014909357 0.019241093
0.019736357 0.0047627324 0.0036009417 0.024524726 0.0021551922 0.034091655 0.03437348 -0.025693024
-0.014112777 0.002553979 0.004701301 -0.024784831 -0.032896288 0.03152735 -0.012762775 -0.0269899
0.004313366 0.018478591 -0.003776353 0.020706471 0.017913084 0.001300276 -0.012042154 -0.018935567
-0.024224145 -0.02026172 0.021827646 0.009813006 -0.029900664 -0.015826073 0.010272169 0.019561784
-0.022144036 0.018406577 0.0006545336 -0.03299382 -0.00062171335 -0.009495858 0.033839233 -0.025561167
0.016342927 -0.013091651 0.014408302 -0.008250955 0.026310105 -0.012528592 0.02593264 0.008366041
-0.016056696 -0.014728063 -0.0017280271 -0.0024060367 0.010682088 0.029763058 -0.009119293 0.009847491
0.03538368 -0.020977464 0.020904576 -0.03420326 -0.018249856 0.020863896 0.02323987 0.005229584
-0.02584555 -0.015842846 -0.0042063515 -0.015710242 -0.017594581 -0.03508873 -0.0030909292 -0.024495557
0.022358434 -0.0003575157 -0.02955553 -0.0006517471 7.2623494e-05 0.029086709 0.015005899 0.027826875
00000000: f83d c83c 411b 013d eecb d6bc 460e 47bc
00000010: 70bb c3bc 7867 2cbc 60f2 2a3c 3830 80bb
00000020: 5059 133b bad7 b8bc d039 413c d071 9f3b
00000030: 5082 2dbb 5983 073d 9ae4 fe3c 40b3 ac3c
00000040: f04b bc3c 18f7 91bb 1868 2b3c 43ac 9bbc
00000050: 2097 9dba a897 493c f026 893c ce7b 19bc
00000060: be98 02bd d8e6 523c 3ea9 08bd 0e53 09bd
00000070: 4a79 d53c 80e8 9ab9 1212 e03c ca05 df3c
00000080: 6949 27bc 3edb 923c c041 d2bc bb16 fb3c
00000090: 9039 b23b 46d5 1c3b b0ed fdbc 714f 0fbc
000000a0: 3ffa a3bc 8f3f 0fbd 7959 a73c 289f 9d3c
000000b0: 9af3 f2bc 84bc b73c e8f4 9fbc 8076 d7bc
000000c0: ce9f 503c 3ac7 d93c fec1 cabb 2c30 40bc
000000d0: 13d8 e5bc 9341 9bbc 0300 efbc 866e 78bc
000000e0: cf47 013d 68e7 88bb 3716 a93b 9421 7b3c
000000f0: b3d4 5f3c 8944 f5bc cd85 743c 1249 fabc
00000100: 899b d33c 6134 dfbb d464 bebc 5283 973b
00000110: 9751 e8bc 6187 4dbc 3643 023d 2fde 6b3b
00000120: f137 b43c baf4 b1bc bd84 913c 75f3 f4bc
00000130: fd07 52bc f02f 6bbc 32ff 0d3c 67f9 b53b
00000140: d38a 0c3d 3390 a33a fc62 9d3c ba60 c8bc
00000150: 2a7d b63c 5e9a ee3c e649 9ebc 5216 d43c
00000160: 25de bc3c 4827 e33c a196 0f3d 31a1 b63b
00000170: 4df0 4f3c ba69 a1bb 0ee5 cdbc 25ce dbbc
00000180: e3f7 1839 be58 1bbc 0e6d 03bd fc07 db3c
00000190: 0265 7c3c 492f 553c 667e b9bc d1b2 0abd
000001a0: 884f 0dbd 7fda 803c 5676 1dbc 3137 a9bc
000001b0: 835b bfbc 0d63 e33c 39ac e13c 596a 083d
000001c0: a315 9dbc 7319 103c 1fa2 3c3c 9ca8 b0bc
000001d0: 4234 ffbc 0b87 abbc 4482 d1bc cda4 fd3c
000001e0: c01e 253b 8b4a 09bd 7981 5b3b c61f 083d
000001f0: 60e7 d03c 424d 9ebb 5d2f df3a 0a13 b7bb
00000200: 608a aabb 3dae 8bbc 81ff 18bb 0a9b 0ebd
00000210: 8033 ee3b 7bfd 67bc 869c d9bc c028 ecbc
00000220: 572a cd3b ffcd efba 7be1 c1bc ffa4 54bc
00000230: 8e17 43bc 7c04 883c a639 a6bc a008 2ebb
00000240: 3a4e 003d a9e8 443b fe38 04bc 474d ecbc
00000250: 66e9 d7bb dd94 5d3c 2bb7 9b3c ffda 3abc
00000260: 1587 fd3c 5019 9abb c29f ea3b e902 f73b
00000270: 5fd8 013c 2a53 c8bc 474b 7abc 4792 18bc
00000280: 931b 423b b289 2d3b 261b e13c 4035 ed3c
00000290: e21a f7ba f824 033d 0f20 35bc c026 a2bc
000002a0: b6c7 c03c 3d82 d83c e301 5abc 1c81 e3bc
000002b0: 8f9b 2a3c 691e 9fbc 806b c33a 7f9f 9d3c
000002c0: 24ae a13c b210 9c3b c7fd 6b3b 14e8 c83c
000002d0: 203e 0d3b b1a3 0b3d 35cb 0c3d 2d7a d2bc
000002e0: 4739 67bc a860 273b 5f0d 9a3b 8f09 cbbc
000002f0: 42be 06bd d322 013d f51a 51bc ec19 ddbc
00000300: 2357 8d3b 6a60 973c b17c 77bb 9ea0 a93c
00000310: 76be 923c 066e aa3a 744c 45bc c31e 9bbc
00000320: b771 c6bc e8fb a5bc e4cf b23c bbc6 203c
00000330: 3df2 f4bc aea5 81bc 994c 283c 0940 a03c
00000340: 6967 b5bc 64c9 963c 0295 2b3a 8724 07bd
00000350: 7afa 22ba 8494 1bbc 029b 0a3d a765 d1bc
00000360: 9ae1 853c 5d7e 56bc cc10 6c3c 032f 07bc
00000370: 4a88 d73c b944 4dbc b070 d43c b811 093c
00000380: 5589 83bc f94d 71bc f87e e2ba 99ae 1dbb
00000390: ed03 2f3c a8d1 f33c 1669 15bc 5f57 213c
000003a0: 7aee 103d eed8 abbc 1340 ab3c b818 0cbd
000003b0: b980 95bc c3ea aa3c 8a61 be3c ee5c ab3b
000003c0: 0cba d3bc dbc8 81bc 6fd5 89bb c4b2 80bc
000003d0: 8322 90bc 33b9 0fbd 3091 4abb e8aa c8bc
000003e0: 0929 b73c f270 bbb9 701e f2bc 02da 2aba
000003f0: 714d 9838 4047 ee3c 4ddb 753c 30f5 e33c

network.1.bias f4 [128]
-0.008268357 -0.0242913 0.025334168 0.01906315 0.027078485 0.0079997 0.0015241397 0.017788589
-0.0040109186 -0.0053435666 0.021604132 -0.005652401 0.028781125 -0.010126737 -0.0039049464 -0.02062604
0.024383675 0.015513152 0.017739043 -0.016751368 -0.018492606 0.0030276608 0.025156751 0.03741413
0.0007505684 -0.020844297 0.026285022 -0.013245023 -0.01794403 0.017035607 -0.026408333 -0.00035534642
0.022602623 -0.025560522 -0.010405235 -0.020563664 -0.008946294 -0.030895915 -0.03392618 0.02596629
-0.0014896191 -0.026170202 0.03320735 -0.009970874 -0.016951714 0.025707193 0.016263757 0.010881642
0.0031035247 -0.011677716 -0.0065960297 0.010506114 -0.0077825487 0.032477245 -0.026019447 0.032183293
-0.0054684468 0.017775863 0.024533741 0.00367971 0.029147567 -0.018783635 0.019573463 -0.022108827
0.028034154 -0.024534237 -0.029974345 -0.019529074 0.019306108 -0.005064748 -0.021566749 0.023328772
0.021046337 0.012486338 0.009983261 -0.01347604 0.03157473 0.018255731 -0.027173959 0.019452855
0.0173803 -0.033957146 -0.011221173 0.0129441535 0.034571666 -0.031791646 -0.028998159 -0.010304135
-0.025293943 0.035750616 0.024884282 0.01580026 0.0064093457 0.035189573 -0.0020942083 0.0008028426
-0.01654434 0.011198075 -0.006179888 0.0014546793 -0.010150081 -0.03354573 0.002486902 0.01196648
0.021074485 0.017573554 -0.0031585188 0.023911709 0.029362088 -0.018590625 0.0058403546 0.0068160724
-0.01082906 0.00040260894 0.0038278454 0.028845347 0.020209974 -0.012762775 -0.022436086 -0.007839952
0.0037878812 0.01938267 -0.0031466985 -0.0013504587 0.029202713 0.0044609117 0.0051233475 -0.026133167
00000000: 0178 07bc 8cfe c6bc 9a89 cf3c 532a 9c3c
00000010: b3d3 dd3c 2c11 033c a4c5 c73a 60b9 913c
00000020: 066e 83bb 1619 afbb 26fb b03c c737 b9bb
00000030: 65c6 eb3c 9dea 25bc 21ea 7fbb f1f7 a8bc
00000040: 46c0 c73c e02a 7e3c 7851 913c 2a3a 89bc
00000050: ce7d 97bc b86b 463b 8815 ce3c 8f3f 193d
00000060: cbc1 443a a9c1 aabc b053 d73c a701 59bc
00000070: 5cff 92bc 428e 8b3c 4a56 d8bc ca4d bab9
00000080: 2329 b93c 4d64 d1bc b87a 2abc 2175 a8bc
00000090: 7a93 12bc 6e19 fdbc 2ef6 0abd 42b7 d43c
000000a0: 533f c3ba e462 d6bc 6e04 083d e05c 23bc
000000b0: 52de 8abc e497 d23c 923b 853c ea48 323c
000000c0: 8164 4b3b e453 3fbc 8223 d8bb d621 2c3c
000000d0: c004 ffbb dc06 053d bc26 d5bc a1d2 033d
000000e0: a830 b3bb b09e 913c fcfa c83c 4a27 713b
000000f0: e1c6 ee3c 23e0 99bc 8758 a03c 921d b5bc
00000100: e2a7 e53c 06fc c8bc c28c f5bc 70fb 9fbc
00000110: d827 9e3c 30f6 a5bb c0ac b0bc fb1b bf3c
00000120: 5e69 ac3c 7f93 4c3c d590 233c 9cca 5cbc
00000130: 8154 013d 0b8d 953c ec9b debc 985b 9f3c
00000140: 2261 8e3c a616 0bbd 03d9 37bc b713 543c
00000150: 059b 0d3d f537 02bd 8c8d edbc add2 28bc
00000160: 3e35 cfbc 3d6f 123d 1fda cb3c 8c6f 813c
00000170: 7d05 d23b f122 103d fc3e 09bb db75 523a
00000180: ff87 87bc 2178 373c a880 cabb f0aa be3a
00000190: 864c 26bc 3f67 09bd 4bfb 223b 0e0f 443c
000001a0: 66a4 ac3c 6af6 8f3c 27ff 4ebb 7de2 c33c
000001b0: c388 f03c 5e4b 98bc 7260 bf3b 5c59 df3b
000001c0: 5f6c 31bc 4215 d339 97dc 7a3b 144d ec3c
000001d0: 638f a53c f51a 51bc e2cb b7bc 2473 00bc
000001e0: 1a3e 783b 68c8 9e3c d738 4ebb e001 b1ba
000001f0: 873a ef3c d72c 923b c1e1 a73b 3915 d6bc

network.3.weight f4 [64, 128]
0.033623386 0.026950492 -0.04005027 -0.06581153 0.051759355 -0.024674486 0.0320243 -0.0352129
0.068753675 -0.02475785 0.087732896 -0.039307788 0.016987467 0.0702636 0.03780072 0.042938888
0.06865503 0.079496175 0.022903016 0.07398089 0.00623545 0.064227566 0.08454719 0.011833748
0.060074188 -0.0036190925 0.07057935 -0.013222969 0.087710716 0.02260434 -0.03200754 0.062971584
-0.04356987 -0.07355196 -0.05859067 0.07156862 0.06688761 -0.032049954 0.060212955 -0.026377382
0.0061672647 -0.04006653 0.08582701 0.07139653 0.063666195 -0.044427674 0.01305278 -0.05638481
-0.012123157 0.035777833 0.08331337 0.071676455 -0.02652285 -0.07536459 -0.030045414 0.0655432
0.067887254 0.020131879 0.026848793 -0.0075525143 -0.05757599 0.08308409 -0.014073689 -0.029075837
-0.0051131044 -0.012613302 0.0697471 -0.04039916 0.010385808 0.025330326 -0.06372132 -0.06841582
-0.040284548 0.036723092 -0.0031182643 -0.021214819 -0.041003045 0.05730774 0.04443915 0.012451387
0.035012364 -0.0065808264 0.07286983 -0.034634147 -0.024520012 0.08261042 0.042078856 0.062083047
0.03493742 0.04511594 0.059348106 -0.050610907 -0.024985246 0.08831723 -0.026631229 -0.028955748
-0.025762929 -0.028385542 -0.060802747 -0.08207749 -0.007368652 0.0681998 0.043582536 -0.023495926
0.05770828 -0.024315106 0.01989607 0.05951711 -0.010939852 -0.04372274 -0.029427003 0.074304454
0.027196204 -0.024440708 0.08621986 0.055838317 -0.012933021 -0.034806546 0.0070878128 -0.06086021
0.081056654 0.08854361 -0.06447201 0.03129164 -0.058805082 -0.061230708 -0.049760796 -0.07734072
0.07454293 0.08382547 0.042951483 0.043443825 0.056221664 0.07996345 0.006190951 -0.04039075
0.08579742 0.011494292 -0.011259547 0.044758685 0.08585707 -0.023118798 0.08463212 0.035923537
0.08489246 -0.038611427 0.076879196 -0.047036212 0.04757089 0.061953116 -0.08070478 0.066111155
-0.041260615 0.05504281 -0.07590313 -0.05774013 -0.059425548 0.023719948 -0.013165398 0.042837925
0.05904417 -0.050238494 0.02507434 -0.06025444 0.012730488 0.07579442 -0.021085532 -0.012627345
0.008023618 -0.068127826 -0.040520675 -0.034865987 0.02501935 -0.011621292 -0.039184004 -0.04343646
0.020124746 -0.039636157 -0.049014255 0.078742206 -0.04955354 0.08881944 0.07051632 0.07244794
0.032330893 -0.048700463 0.019047964 0.030719766 0.020535601 -0.021156944 -0.0520818 -0.050408076
-0.063183665 -0.042228412 -0.062321734 0.06534709 -0.044493027 -0.08082415 -0.06054341 -0.054268032
0.07871958 -0.029813634 0.06988007 -0.045082495 -0.03737001 -0.052318893 0.04962603 0.0742394
-0.08462512 0.071503766 0.050654527 0.0065206457 -0.08784213 -0.02592725 -0.06563736 0.030490283
-0.012049629 0.05966936 0.07270781 -0.0843637 -0.06486236 0.07324816 -0.046518676 0.034901034
0.08469575 -0.0288123 0.04428624 0.08487877 -0.0862106 0.025422646 0.017627796 0.056579676
0.012132769 0.05283821 -0.009068425 -0.015197539 -0.04781442 0.048129007 0.077050745 -0.026342766
0.0059738625 0.055399545 0.06653209 -0.06849886 0.050948 -0.06856725 -0.0200058 0.08031996
0.060081612 -0.06125299 -0.030684078 0.07539375 0.007865709 -0.015193456 -0.023129754 0.06068091
00000000: adb8 093d 47c7 dc3c c00b 24bd 32c8 86bd
00000010: 9e01 543d 2622 cabc ea2b 033d 673b 10bd
00000020: bace 8c3d fad0 cabc 4ead b33d 3401 21bd
00000030: 4d29 8b3c 5de6 8f3d eed4 1a3d b0e0 2f3d
00000040: 029b 8c3d e4ce a23d 1b9f bb3c 4b83 973d
00000050: bf52 cc3b be89 833d 1427 ad3d 56e2 413c
00000060: 5a10 763d 4c2e 6dbb e88b 903d 27a5 58bc
00000070: ada1 b33d bd2c b93c 571a 03bd 3ff7 803d
00000080: 5276 32bd 69a2 96bd c5fc 6fbd 9292 923d
00000090: 5ffc 883d d046 03bd dca1 763d 6115 d8bc
000000a0: c416 ca3b cd1c 24bd 12c6 af3d 5838 923d
000000b0: 6c63 823d cbf9 35bd 54db 553c c2f3 66bd
000000c0: 35a0 46bc c78b 123d 33a0 aa3d 1bcb 923d
000000d0: 7346 d9bc c058 9abd cd21 f6bc 833b 863d
000000e0: 7908 8b3d 9ceb a43c 00f2 db3c 157b f7bb
000000f0: cdd4 6bbd fe27 aa3d 5495 66bc 7330 eebc
00000100: d48b a7bb 06a8 4ebc 91d7 8e3d 9779 25bd
00000110: 3c29 2a3c 8b81 cf3c 5380 82bd 981d 8cbd
00000120: 6901 25bd f46a 163d cb5b 4cbb b3ca adbc
00000130: cff2 27bd 85bb 6a3d d305 363d e700 4c3c
00000140: 2069 0f3d f9a3 d7bb c73c 953d 89dc 0dbd
00000150: 31de c8bc a72f a93d e15a 2c3d cb4a 7e3d
00000160: 8a1a 0f3d 7ecb 383d 0017 733d 624d 4fbd
00000170: dcad ccbc aadf b43d bc29 dabc 9b34 edbc
00000180: c70c d3bc cc88 e8bc 4d0c 79bd 3e18 a8bd
00000190: bc74 f1bb 56ac 8b3d 9a83 323d 877a c0bc
000001a0: 845f 6c3d 7930 c7bc 15fd a23c 37c8 733d
000001b0: 113d 33bc 9e16 33bd e610 f1bc ef2c 983d
000001c0: 93ca de3c e137 c8bc 0a94 b03d b8b6 643d
000001d0: 06e5 53bc 4f91 0ebd e240 e83b 8e48 79bd
000001e0: 0801 a63d 5a56 b53d e709 84bd aa2b 003d
000001f0: 99dd 70bd 0dcd 7abd fad1 4bbd d064 9ebd
00000200: f7a9 983d b0ac ab3d e5ed 2f3d 27f2 313d
00000210: b048 663d e1c3 a33d 76dd ca3b c570 25bd
00000220: 8fb6 af3d 8e52 3c3c f779 38bc e254 373d
00000230: d5d5 af3d a263 bdbc 9b53 ad3d 8f24 133d
00000240: 19dc ad3d 0427 1ebd d772 9d3d 0ba9 40bd
00000250: b2d9 423d 8dc2 7d3d 8c48 a5bd 4965 873d
00000260: e400 29bd 9274 613d 1a73 9bbd ea80 6cbd
00000270: 3468 73bd 5650 c23c aeb3 57bc d276 2f3d
00000280: 4dd8 713d e1c6 4dbd b468 cd3c 5ccd 76bd
00000290: 8993 503c 1b3a 9b3d 91bb acbc ece2 4ebc
000002a0: 7e75 033c 9a86 8bbd 02f9 25bd a3cf 0ebd
000002b0: 61f5 cc3c 3b67 3ebc 687f 20bd 6eea 31bd
000002c0: a7dc a43c 8659 22bd 2cc3 48bd 9843 a13d
000002d0: a7f8 4abd f7e6 b53d dc6a 903d 965f 943d
000002e0: 666d 043d 237a 47bd 7a0a 9c3c 05a8 fb3c
000002f0: 473a a83c 5451 adbc ba53 55bd b378 4ebd
00000300: 7066 81bd b3f7 2cbd 1345 7fbd b2d4 853d
00000310: 523e 36bd 2287 a5bd 5efc 77bd 2848 5ebd
00000320: bb37 a13d b93b f4bc 481d 8f3d 6ca8 38bd
00000330: 4c11 19bd 564c 56bd aa44 4b3d d40a 983d
00000340: ef4f adbd 9170 923d 1f7b 4f3d 24ab d53b
00000350: 93e6 b3bd 6265 d4bc e16c 86bd c2c6 f93c
00000360: cf6b 45bc dc67 743d d5e7 943d e0c6 acbd
00000370: 8fd6 84bd 2203 963d 5e8a 3ebd 63f4 0e3d
00000380: f774 ad3d c607 ecbc 7d65 353d ecd4 ad3d
00000390: 2f8f b0bd 2743 d03c 2b68 903c 17c0 673d
000003a0: 86c8 463c e16c 583d bb93 14bc 19ff 78bc
000003b0: 0ed9 43bd ec22 453d c8cc 9d3d c9cc d7bc
000003c0: 64c0 c33b a2ea 623d fa41 883d 2149 8cbd
000003d0: daae 503d fd6c 8cbd 34e3 a3bc cb7e a43d
000003e0: 2318 763d 6ae4 7abd 2d5d fbbc 0a68 9a3d
000003f0: 2ddf 003c f9ed 78bc 9c7a bdbc 8c8c 783d

network.3.bias f4 [64]
-0.031668033 -0.04871699 0.0335966 0.05247079 0.064027235 0.06775129 -0.0669051 -0.08791537
-0.023716167 0.0731607 -0.061568476 0.05873623 -0.04973123 -0.022636645 -0.013270012 -0.05285082
-0.0054007433 0.054802988 0.06874808 -0.052958876 0.03304388 0.08212284 -0.045295708 -0.008480939
0.021539137 0.017893784 0.05024276 -0.050997283 -0.025340063 -0.017451687 0.04330938 -0.032373715
0.064718395 0.08037077 -0.0754166 0.091713585 0.08717494 -0.02442446 -0.06775376 -0.02404917
-0.08058726 -0.028920261 0.04208211 0.013296132 0.07515396 0.027413925 -0.088063255 -0.047287263
-0.007556392 -0.087463796 -0.0038819844 -0.03675423 0.07090264 -0.07025809 -0.002135971 -0.056697257
-0.050461996 0.04001901 0.07403151 0.020837221 -0.07284689 -0.0052331877 0.06800909 0.079231255
00000000: 57b6 01bd 778b 47bd 979c 093d 9ceb 563d
00000010: b620 833d 30c1 8a3d 8b05 89bd f90c b4bd
00000020: 6848 c2bc 47d5 953d 3a2f 7cbd 6795 703d
00000030: f9b2 4bbd 7c70 b9bc 776a 59bc 1a7a 58bd
00000040: b8f8 b0bb 1979 603d cbcb 8c3d 68eb 58bd
00000050: 0559 073d 0530 a83d fe87 39bd a3f3 0abc
00000060: d872 b03c fc95 923c 5acb 4d3d 87e2 50bd
00000070: f795 cfbc d7f6 8ebc 2d65 313d 4d9a 04bd
00000080: 148b 843d 6e99 a43d 0574 9abd 55d4 bb3d
00000090: c688 b23d ce15 c8bc 7cc2 8abd c402 c5bc
000000a0: ef0a a5bd 2fea ecbc 4a5e 2c3d 05d8 593c
000000b0: 52ea 993d 2b93 e03c 825a b4bd 4ab0 41bd
000000c0: 9c9b f7bb 3820 b3bd e468 7ebb 9a8b 16bd
000000d0: 6735 913d 79e3 8fbd a6fb 0bbb 623b 68bd
000000e0: 3db1 4ebd f9ea 233d d59d 973d d2b2 aa3c
000000f0: c030 95bd 297b abbb 5a48 8b3d ff43 a23d

network.5.weight f4 [10, 64]
-0.10941512 0.01582152 -0.11164265 -0.08717541 0.022201173 -0.014314892 -0.020572193 0.035042193
0.09637319 0.039233126 0.097503446 -0.10262028 -0.118826926 -0.033646274 0.047839332 -0.114858404
-0.009563678 0.035350636 -0.050098702 -0.0048424685 0.023483936 -0.016883338 -0.012763725 0.1359816
-0.010893275 0.08753127 -0.07943294 0.07841137 0.030957589 0.08614873 0.077962816 -0.022492057
0.06308211 0.034359265 -0.07758184 -0.10166701 0.010153394 -0.08875453 -0.07345141 0.014697744
-0.0037228167 -0.09286154 -0.100049935 -0.043505426 -0.13138519 -0.106107704 0.02765903 0.01927987
0.008064886 -0.117371686 -0.01040973 -0.007927569 -0.045521293 -0.09335463 0.013069969 -0.07495726
0.0463051 -0.09788942 0.069418676 -0.08840201 0.07033631 -0.09716231 -0.064688124 -0.04245174
0.07480528 0.056098677 -0.022125129 -0.113685556 -0.016293982 -0.040240977 0.095693216 0.06004075
-0.06776801 -0.098107085 -0.012287968 0.039791264 0.03421311 0.01311551 0.057646807 0.066843525
-0.12262184 0.10293872 -0.05065092 -0.09568152 0.049867295 0.036129467 -0.07679809 -0.011265674
-0.07833316 0.09975983 -0.11190195 0.06499784 0.043576036 -0.052886404 -0.11617996 -0.033150274
-0.117241524 0.041612815 -0.017116921 0.081595495 0.10635582 -0.07703755 -0.091602065 0.030911451
-0.005954638 0.039458923 0.010241048 -0.03904178 0.13516594 0.008707307 -0.066915184 -0.07224741
-0.04105089 0.0015863793 -0.117034115 0.031251695 -0.03913764 -0.0755527 0.019394629 -0.09345783
0.04016569 0.034965903 -0.12928814 -0.00877021 -0.10959233 -0.09005494 0.06563144 0.07046388
0.06521874 -0.102125406 0.10468735 -0.055701338 0.038392488 0.08404736 -0.034647465 -0.06806504
0.07842894 0.020048555 0.019385073 0.06590876 -0.110092476 0.003169892 0.01659408 -0.08064379
0.044311862 -0.05010152 -0.08810003 0.028596207 0.013949981 -0.08110284 -0.0514486 0.068841636
-0.08072624 0.11206213 -0.013873671 -0.119449176 0.086866885 -0.09362286 -0.09688165 -0.11654322
-0.11200154 -0.09474914 0.092152186 0.014267536 0.07469153 -0.0093218535 0.0902531 -0.046952527
-0.0035752654 -0.053196393 0.10180799 -0.10650746 0.078954466 0.08661137 0.10069114 -0.089086935
0.11553652 0.084162585 -0.07950629 0.04209343 0.08384521 0.059584673 0.0025194641 0.05081307
0.12086233 0.0019181018 0.06558737 0.038539972 0.07946275 0.08567196 0.063291624 -0.058036085
-0.03188457 0.07813088 0.04903101 0.044580095 0.08680627 -0.053973943 -0.06852146 0.103554405
0.06803438 0.025370618 0.08746692 0.046545368 0.016266791 -0.025206087 -0.059094343 0.10436315
0.019429754 0.077043146 -0.061603907 -0.11612536 -0.092169926 0.035903998 0.10257485 -0.0007118122
-0.0809206 -0.10468853 -0.009274079 0.0945207 -0.007065932 0.06277119 -0.12204024 -0.022116914
0.06598649 -0.11933696 0.08789223 0.05547242 0.015957698 -0.120569214 -0.11481013 -0.0009025867
0.04370828 -0.0341468 0.07507296 -0.117884494 0.10558793 0.013790771 -0.011616321 0.044842947
0.0687586 -0.08929812 -0.10876004 -0.017965859 0.065526165 -0.109822884 0.11865397 -0.012214214
0.0036782476 0.06861286 0.008345921 -0.06336339 -0.093058884 0.032316793 -0.09206139 -0.074377075
00000000: 0915 e0bd 229c 813c e7a4 e4bd 0589 b2bd
00000010: 3cdf b53c 0289 6abc 0487 a8bc 6788 0f3d
00000020: 4f5f c53d eab2 203d e3af c73d 952a d2bd
00000030: 885b f3bd add0 09bd 2df3 433d e23a ebbd
00000040: f9b0 1cbc d4cb 103d 4c34 4dbd 92ad 9ebb
00000050: 6261 c03c ed4e 8abc f11e 51bc c33e 0b3e
00000060: b579 32bc 9843 b33d bdad a2bd 2496 a03d
00000070: c59a fd3c bf6e b03d f8aa 9f3d 4341 b8bc
00000080: 3131 813d 4dbc 0c3d 3ae3 9ebd cb36 d0bd
00000090: 6c5a 263c efc4 b5bd b16d 96bd cece 703c
000000a0: 80fa 73bb 312e bebd fbe6 ccbd bf32 32bd
000000b0: d789 06be ff4e d9bd 3195 e23c d1f0 9d3c
000000c0: 9522 043c 9160 f0bd 928d 2abc a2e2 01bc
000000d0: 8974 3abd b630 bfbd 6c23 563c 3183 99bd
000000e0: 6baa 3d3d 407a c8bd 612b 8e3d 1d0c b5bd
000000f0: 7c0c 903d 08fd c6bd 357b 84bd e0e1 2dbd
00000100: 8333 993d bac7 653d c23f b5bc f9d3 e8bd
00000110: f57a 85bc b9d3 24bd cefa c33d 4aed 753d
00000120: f4c9 8abd 5eec c8bd 7953 49bc 2afc 223d
00000130: 0c23 0c3d 70e2 563c 0f1f 6c3d 42e5 883d
00000140: 2921 fbbd 89d1 d23d 5777 4fbd acf4 c3bd
00000150: a641 4c3d 7efc 133d 5148 9dbd a993 38bc
00000160: 236d a0bd e24e cc3d d92c e5bd 961d 853d
00000170: c97c 323d 6a9f 58bd c2ef edbd 95c8 07bd
00000180: 531c f0bd 3372 2a3d c938 8cbc 8a1b a73d
00000190: 15d1 d93d ddc5 9dbd dd99 bbbd 033a fd3c
000001a0: 201f c3bb ae9f 213d 12ca 273c 46ea 1fbd
000001b0: f168 0a3e 18a9 0e3c d40a 89bd 73f6 93bd
000001c0: fa24 28bd 0eee cf3a 95af efbd c701 003d
000001d0: ca4e 20bd 60bb 9abd 7ce1 9e3c d266 bfbd
000001e0: c784 243d 6838 0f3d 1c64 04be edb0 0fbc
000001f0: f271 e0bd b96e b8bd c769 863d 5e4f 903d
00000200: 6791 853d 2027 d1bd 5266 d63d 1627 64bd
00000210: 7141 1d3d 0621 ac3d 80ea 0dbd af65 8bbd
00000220: 5a9f a03d de3c a43c 72cd 9e3c 2cfb 863d
00000230: 2a78 e1bd f6bd 4f3b 4ff0 873c 9228 a5bd
00000240: 5b80 353d 4037 4dbd ca6d b4bd 9842 ea3c
00000250: 768e 643c 3f19 a6bd c4bb 52bd d8fc 8c3d
00000260: cd53 a5bd d480 e53d 654e 63bc c5a1 f4bd
00000270: 44e7 b13d 58bd bfbd e369 c6bd 36ae eebd
00000280: 1061 e5bd d60b c2bd 49ba bc3d 62c2 693c
00000290: dff7 983d b0ba 18bc 9ed6 b83d 4b51 40bd
000002a0: 004f 6abb 76e4 59bd b580 d03d 9520 dabd
000002b0: e1b2 a13d 4d61 b13d 2837 ce3d 3673 b6bd
000002c0: 699e ec3d 6f5d ac3d 32d4 a2bd 296a 2c3d
000002d0: 0ab7 ab3d 0f0f 743d 981d 253b 5e21 503d
000002e0: ab86 f73d d168 fb3a ac52 863d 17dc 1d3d
000002f0: 5ebd a23d c874 af3d 0a9f 813d 3fb7 6dbd
00000300: 6599 02bd 1503 a03d bed4 483d 9e99 363d
00000310: 7cc7 b13d c813 5dbd fb54 8cbd 5514 d43d
00000320: 9c55 8b3d 0bd6 cf3c db21 b33d 5ba6 3e3d
00000330: ef41 853c ff7c cebc e90c 72bd 59bc d53d
00000340: 262b 9f3c ccc8 9d3d 6154 7cbd 22d3 edbd
00000350: 96c3 bcbd 1210 133d c312 d23d e898 3aba
00000360: b3b9 a5bd f166 d6bd 4ff2 17bc 1294 c13d
00000370: 5589 e7bb 2f8e 803d 3cf0 f9bd 882e b5bc
00000380: ed23 873d f066 f4bd d700 b43d 0c37 633d
00000390: b8b9 823c feec f6bd 9321 ebbd 919b 6cba
000003a0: 7407 333d 84dd 0bbd dabf 993d 6d6d f1bd
000003b0: 7c3e d83d b0f2 613c 6252 3ebc 3dad 373d
000003c0: 4fd1 8c3d efe1 b6bd 95bd debd 232d 93bc
000003d0: 9532 863d d2ea e0bd da00 f33d 201e 48bc
000003e0: c10e 713b e684 8c3d 54bd 083c aac4 81bd
000003f0: a895 bebd 9d5e 043d af8a bcbd 0253 98bd

network.5.bias f4 [10]
-0.05289582 0.11457618 -0.032923013 0.06352616 0.027601248 0.035966214 0.07734253 0.07266305
-0.04604767 -0.07761595
00000000: 4aa9 58bd eba6 ea3d 48da 06bd 011a 823d
00000010: 031c e23c 4f51 133d c365 9e3d 5dd0 943d
00000020: 7b9c 3cbd 1cf5 9ebd
