models/mnist-logistic.pth (torch, 32962 bytes, 2 tensors)

linear.weight f4 [10, 784]
000000 16 9b c8 3c c0 22 6e bc b2 d7 fc 3c 5c 59 9f bc
       0.024488013 -0.014534652 0.03086457 -0.01945179
000010 b1 39 02 3d 3c f3 ad bc 89 fd 0d 3d 4e 82 f9 3c
       0.0317933 -0.021234147 0.034665618 0.030457642
000020 68 28 ed 3b 19 1d 10 3d 40 02 46 3a a1 61 0c 3d
       0.007237483 0.035184 0.0007553436 0.034272794
000030 c8 1c f6 bc e8 bd 80 3c d2 44 82 3c bc 34 fc bc
       -0.03004302 0.015715554 0.015901957 -0.030786864
000040 d8 f8 6f 3c 80 e6 60 3c 98 97 5c 3c 10 60 6b 3c
       0.014646731 0.0137268305 0.013463877 0.014366165
000050 2c 5e b4 bc 3c 93 aa 3c 00 50 c5 bb 8e 4a bd 3c
       -0.02201756 0.02082216 -0.0060214996 0.02310684
000060 20 24 51 3c d0 0b e3 bc 38 05 86 3b 92 74 9f 3c
       0.0127649605 -0.027715594 0.0040899776 0.019464765
000070 1c ed 00 3c be cc c7 3c 2e 5b e7 3c da eb b5 3c
       0.007869031 0.02438962 0.02824172 0.02220719
000080 a1 d0 95 bc 50 97 ba bb 6c 5e 9a b9 95 fd cb bc
       -0.018287959 -0.0056943074 -0.0002944352 -0.02490119
000090 3b ec 82 bc 05 e6 19 3c 79 59 7a bc 64 2d 00 bc
       -0.015981784 0.00939322 -0.015280121 -0.007823322
0000a0 3e 28 d1 3c 5a 82 0e 3c 01 03 b8 bb f6 0b 13 bd
       0.025531884 0.00869807 -0.0056155925 -0.03590008
0000b0 4b e6 a5 3c 79 55 7d bc 58 32 ab bb c1 09 9d bc
       0.020251414 -0.015462273 -0.0052245073 -0.01916969
0000c0 59 81 38 3a 00 af c1 bb 18 36 0d bd 5d 8e 68 3c
       0.0007038317 -0.005910754 -0.034475416 0.014194098
0000d0 5e ec aa 3c fb 29 09 3d 68 95 f0 3b 94 b7 78 3c
       0.020864662 0.0334873 0.0073420294 0.015180487
0000e0 cb b2 0a bd 4e 0b 87 3c e3 a9 09 3d 21 54 86 3a
       -0.033861917 0.016484883 0.033609282 0.0010248461
0000f0 84 fa e6 3c 6d 56 1e 3b d3 7e 3a 3c 8c 54 40 3c
       0.028195627 0.00241604 0.011382776 0.011738908
000100 fd 28 dc bb bb d6 c8 bc 6c f1 e6 bb 76 32 15 3c
       -0.0067187534 -0.024516454 -0.0070478227 0.009106269
000110 92 ea b0 3c e3 cc d9 3c fd 85 f0 bb 06 c9 c6 3c
       0.021596227 0.026586955 -0.0073401914 0.024265777
000120 21 87 b4 39 b1 9b 8c 3c f0 3d 66 bc 3a d8 d3 bc
       0.00034432954 0.017164083 -0.014052853 -0.02585994
000130 f0 40 36 3b 91 47 0b 3c 90 d6 b4 3b a2 f8 db bc
       0.0027809702 0.0085009495 0.005518742 -0.026851956
000140 1d 0b f6 bc ab 5c fa 3c 88 33 25 3c 6e db 9d 3c
       -0.030034596 0.030561766 0.010083087 0.019269671
000150 20 46 ec 3b 10 60 1a bb a3 b0 07 bd 87 61 db bc
       0.007210508 -0.0023555793 -0.03312744 -0.026779903
000160 c4 83 af ba aa d2 0e bc ed 2e 0b 3c fe 30 f4 bc
       -0.001339071 -0.008717218 0.008495075 -0.029808518
000170 79 0d 00 3d f3 9a f0 ba 59 b2 19 bd 6e fb a2 3c
       0.03126285 -0.0018356725 -0.0375236 0.019895282
000180 e6 b2 c7 3b ab 82 4a 3c f5 7a b4 3c a6 fe a2 3c
       0.0060943244 0.012360255 0.022031287 0.019896816
000190 21 f7 78 3c 38 d7 0a bd ab 76 82 3c f2 0c bd bc
       0.015195639 -0.033896655 0.015925726 -0.023077462
0001a0 7c 4d 94 3c bf 47 e7 b9 ca 4d ea 3c 26 38 7a 3c
       0.018103354 -0.00044113208 0.028601546 0.015272176
0001b0 5c b6 61 bc 61 73 a1 bc 2d 1c 32 bc a8 45 cd 3b
       -0.013776388 -0.019708337 -0.010870975 0.006264407
0001c0 e5 7a f0 bc d4 40 0a bd 1a 58 57 bc 7f 8f 11 bd
       -0.029355476 -0.03375323 -0.013143564 -0.03553724
0001d0 38 b7 9a bc c0 24 0d 3d 1e 9a 0b bd b2 89 68 3c
       -0.018886194 0.034458876 -0.034082524 0.014192985
0001e0 fd 9c e9 3a 3e 7f 33 bd e8 c7 11 3c 5d bd d8 bc
       0.0017823275 -0.04382252 0.008897759 -0.026457483
0001f0 e3 4f 31 bd b7 c7 1c 3c 41 b4 9e bc 34 7c 88 3c
       -0.043289077 0.0095691 -0.019373061 0.016660787
000200 52 85 4b bc 80 6e c2 bc 1d c6 c3 3c 93 9c a6 bc
       -0.012421923 -0.023734331 0.023898179 -0.020338332
000210 f4 35 b7 3c 25 91 51 bc 6f 11 c2 3b e1 95 1b bc
       0.022364594 -0.012790953 0.0059224884 -0.009496183
000220 86 06 4a 3a 4b f6 c2 3b d1 7e bb bc 3c 7b a0 bb
       0.00077066605 0.0059497706 -0.02288762 -0.004897503
000230 80 85 50 ba 58 68 a9 3c f3 0f 41 3c fb 69 e7 bc
       -0.00079544634 0.020679638 0.011783588 -0.028248778
000240 ad d4 0a 3c 98 e8 0f 3b 4f f5 df bc fb 62 bb bc
       0.008473557 0.0021958705 -0.027338652 -0.022874346
000250 2e f3 a2 3c 7d 11 5a 3c d5 65 ea bc ce 6d 84 bc
       0.019891348 0.013309834 -0.02861301 -0.01616564
000260 be 32 a1 3c ce c6 c2 3c 38 29 1b bc 9a 40 8a 3d
       0.019677516 0.023776438 -0.009470277 0.06750603
000270 eb e8 34 3d 61 3e bd 3c fc 37 b6 3c 20 9b 8b bc
       0.04416744 0.023101034 0.022243492 -0.017041743
000280 f3 a8 58 3c c2 07 89 3c 20 62 90 bc e7 28 20 3c
       0.013223874 0.016727332 -0.017624915 0.009775377
000290 18 b1 3c bc b3 bc a5 3c c0 1d 80 3b 3d 84 7f 3c
       -0.011516832 0.02023158 0.0039097965 0.015595493
0002a0 ea 43 84 3c 9f 1e 65 bc 57 85 a8 3c 6e 4c b5 bc
       0.016145665 -0.013984351 0.020571394 -0.022131171
0002b0 a4 81 06 bc c4 8c ed bc 71 74 5b bc ba c0 77 3b
       -0.00820962 -0.028997786 -0.013394461 0.0037804083
0002c0 47 74 1a bc 35 da 69 bd 37 c0 9e bc d2 c6 89 3c
       -0.009427137 -0.057092864 -0.019378765 0.016818438
0002d0 d3 9e 08 3c a0 e9 11 3c 4e 66 2c 3d c7 52 33 3d
       0.008338648 0.008905798 0.042089753 0.043780115
0002e0 2e 1f a7 3c c0 67 a7 3d fb 1f 8a 3d 78 0e 4a 3d
       0.02040061 0.081740856 0.06744381 0.049330205
0002f0 be 26 51 3c 8a 98 c5 bc cc 7a d4 38 b1 4d b9 bb
       0.0127655845 -0.024120588 0.000101318205 -0.0056550135
000300 2d f0 84 b8 5e 21 f9 ba 82 87 9a bc 78 4a cc bc
       -6.338987e-05 -0.0019007137 -0.018863443 -0.024937853
000310 0c d5 45 bc 06 50 9a 3c 1b 5d 3c 3c 92 1a 49 3b
       -0.01207472 0.018836986 0.011496807 0.0030686003
000320 ea f7 ab 3c a2 35 e5 3c 66 5d 46 bd 82 5b 2e 3c
       0.020992238 0.027979676 -0.048428915 0.010641934
000330 72 90 ad 3b 07 45 20 bd 73 24 5c bb fa 32 4e 3b
       0.0052967602 -0.03912833 -0.0033591061 0.003146349
000340 cd e4 88 3c e9 88 01 3d 87 d9 82 3d fd 7c b6 3c
       0.016710663 0.03162471 0.06389146 0.022276396
000350 1a 7d 82 3d 29 d4 ea 3c 2a 69 59 3d 5c f0 9a 3d
       0.063715175 0.028665619 0.053078808 0.07565376
000360 82 41 5e 3d 07 4a 82 3c 46 4d 29 3c 31 bb 23 bc
       0.054261692 0.01590444 0.010333365 -0.00999336
000370 e7 fe 32 bd 1e f5 de 3b 0c f6 f4 bc ef b8 e7 3c
       -0.043700125 0.0068041226 -0.02990248 0.028286425
000380 4d 8d cf 3a 0c 29 ba bc 82 83 f8 3c e8 1c d5 bc
       0.0015834958 -0.02272465 0.030336145 -0.02601476
000390 f2 40 e7 3b c3 d3 a4 bb fc 8f 0a bd d8 c2 d6 bc
       0.0070573026 -0.005030127 -0.03382872 -0.026215956
0003a0 57 da 26 bd 4f a3 59 bc 6d 6c 75 3a f3 a3 08 bc
       -0.04073557 -0.013283565 0.0009362165 -0.00833987
0003b0 58 5e 4a 3d 5f b1 98 ba 2e 71 12 3d 31 05 e2 3c
       0.04940638 -0.001164954 0.035752468 0.027590366
0003c0 20 af 38 3c 09 64 de 3c 9b 64 26 3d 20 8a 7d 3d
       0.011272222 0.02714731 0.04062329 0.061899304
0003d0 24 5d 84 3d 83 b3 1d 3d 62 04 17 3c 46 b1 3e 3b
       0.06463078 0.038501274 0.009217354 0.0029097362
0003e0 04 58 6e 3c b9 83 5b 3c ed 30 67 bb dd af cc bc
       0.014547352 0.013398104 -0.0035276965 -0.024986202
0003f0 8e 46 e8 bb dc 22 49 3c 1d 74 0b bd 38 df 01 3d
       -0.007088489 0.0122763775 -0.03404628 0.03170702

linear.bias f4 [10]
000000 1d ae 80 bc 5c ab 8f 3d 79 9a de ba e3 7a 89 3b
       -0.015708024 0.07015106 -0.0016983292 0.0041955574
000010 ea a7 39 3d f3 c7 40 3d 39 7a 1a bd 13 40 82 3d
       0.04532615 0.047065686 -0.037714217 0.063598774
000020 d9 ac 62 bd 7a 80 16 bd
       -0.05534062 -0.03674362
